…
| monolingual valid-melody: 679 examples
2024-12-28 18:27:52 | INFO | fairseq.data.data_utils | loaded 679 examples from: lmd_data/processed/valid.lyric-melody.lyric
2024-12-28 18:27:52 | INFO | fairseq.data.data_utils | loaded 679 examples from: lmd_data/processed/valid.lyric-melody.melody
| bilingual valid lyric-melody.lyric: 679 examples
| bilingual valid lyric-melody.melody: 679 examples
2024-12-28 18:27:54 | INFO | fairseq_cli.train | ModuleList(
  (0-1): 2 x XTransformerModel(
    (encoders): ModuleDict(
      (lyric): XTransformerEncoder(
        (dropout_module): FairseqDropout()
        (embed_tokens): Embedding(21904, 512, padding_idx=1)
        (embed_positions): SinusoidalPositionalEmbedding()
        (layers): ModuleList(
          (0-5): 6 x TransformerEncoderLayer(
            (self_attn): MultiheadAttention(
              (dropout_module): FairseqDropout()
              (k_proj): Linear(in_features=512, out_features=512, bias=True)
              (v_proj): Linear(in_features=512, out_features=512, bias=True)
              (q_proj): Linear(in_features=512, out_features=512, bias=True)
              (out_proj): Linear(in_features=512, out_features=512, bias=True)
            )
            (self_attn_layer_norm): LayerNorm((512,), eps=1e-05, elementwise_affine=True)
            (dropout_module): FairseqDropout()
            (activation_dropout_module): FairseqDropout()
            (fc1): Linear(in_features=512, out_features=2048, bias=True)
            (fc2): Linear(in_features=2048, out_features=512, bias=True)
            (final_layer_norm): LayerNorm((512,), eps=1e-05, elementwise_affine=True)
          )
        )
      )
      (melody): XTransformerEncoder(
        (dropout_module): FairseqDropout()
        (embed_tokens): Embedding(152, 512, padding_idx=1)
        (embed_positions): SinusoidalPositionalEmbedding()
        (layers): ModuleList(
          (0-5): 6 x TransformerEncoderLayer(
            (self_attn): MultiheadAttention(
              (dropout_module): FairseqDropout()
              (k_proj): Linear(in_features=512, out_features=512, bias=True)
              (v_proj): Linear(in_features=512, out_features=512, bias=True)
              (q_proj): Linear(in_features=512, out_features=512, bias=True)
              (out_proj): Linear(in_features=512, out_features=512, bias=True)
            )
            (self_attn_layer_norm): LayerNorm((512,), eps=1e-05, elementwise_affine=True)
            (dropout_module): FairseqDropout()
            (activation_dropout_module): FairseqDropout()
            (fc1): Linear(in_features=512, out_features=2048, bias=True)
            (fc2): Linear(in_features=2048, out_features=512, bias=True)
            (final_layer_norm): LayerNorm((512,), eps=1e-05, elementwise_affine=True)
          )
        )
      )
    )
    (decoders): ModuleDict(
      (lyric): XTransformerDecoder(
        (dropout_module): FairseqDropout()
        (embed_tokens): Embedding(21904, 512, padding_idx=1)
        (embed_positions): SinusoidalPositionalEmbedding()
        (layers): ModuleList(
          (0-5): 6 x MaskedAttentionDecoderLayer(
            (dropout_module): FairseqDropout()
            (self_attn): MultiheadAttention(
              (dropout_module): FairseqDropout()
              (k_proj): Linear(in_features=512, out_features=512, bias=True)
              (v_proj): Linear(in_features=512, out_features=512, bias=True)
              (q_proj): Linear(in_features=512, out_features=512, bias=True)
              (out_proj): Linear(in_features=512, out_features=512, bias=True)
            )
            (activation_dropout_module): FairseqDropout()
            (self_attn_layer_norm): LayerNorm((512,), eps=1e-05, elementwise_affine=True)
            (encoder_attn): MaskedMHAttention(
              (dropout_module): FairseqDropout()
              (k_proj): Linear(in_features=512, out_features=512, bias=True)
              (v_proj): Linear(in_features=512, out_features=512, bias=True)
              (q_proj): Linear(in_features=512, out_features=512, bias=True)
              (out_proj): Linear(in_features=512, out_features=512, bias=True)
            )
            (encoder_attn_layer_norm): LayerNorm((512,), eps=1e-05, elementwise_affine=True)
            (fc1): Linear(in_features=512, out_features=2048, bias=True)
            (fc2): Linear(in_features=2048, out_features=512, bias=True)
            (final_layer_norm): LayerNorm((512,), eps=1e-05, elementwise_affine=True)
          )
        )
        (output_projection): Linear(in_features=512, out_features=21904, bias=False)
      )
      (melody): XTransformerDecoder(
        (dropout_module): FairseqDropout()
        (embed_tokens): Embedding(152, 512, padding_idx=1)
        (embed_positions): SinusoidalPositionalEmbedding()
        (layers): ModuleList(
          (0-5): 6 x MaskedAttentionDecoderLayer(
            (dropout_module): FairseqDropout()
            (self_attn): MultiheadAttention(
              (dropout_module): FairseqDropout()
              (k_proj): Linear(in_features=512, out_features=512, bias=True)
              (v_proj): Linear(in_features=512, out_features=512, bias=True)
              (q_proj): Linear(in_features=512, out_features=512, bias=True)
              (out_proj): Linear(in_features=512, out_features=512, bias=True)
            )
            (activation_dropout_module): FairseqDropout()
            (self_attn_layer_norm): LayerNorm((512,), eps=1e-05, elementwise_affine=True)
            (encoder_attn): MaskedMHAttention(
              (dropout_module): FairseqDropout()
              (k_proj): Linear(in_features=512, out_features=512, bias=True)
              (v_proj): Linear(in_features=512, out_features=512, bias=True)
              (q_proj): Linear(in_features=512, out_features=512, bias=True)
              (out_proj): Linear(in_features=512, out_features=512, bias=True)
            )
            (encoder_attn_layer_norm): LayerNorm((512,), eps=1e-05, elementwise_affine=True)
            (fc1): Linear(in_features=512, out_features=2048, bias=True)
            (fc2): Linear(in_features=2048, out_features=512, bias=True)
            (final_layer_norm): LayerNorm((512,), eps=1e-05, elementwise_affine=True)
          )
        )
        (output_projection): Linear(in_features=512, out_features=152, bias=False)
      )
    )
  )
)
2024-12-28 18:27:54 | INFO | fairseq_cli.train | task: xmasked_seq2seq (XMassTranslationTask)
2024-12-28 18:27:54 | INFO | fairseq_cli.train | model: xtransformer (ModuleList)
2024-12-28 18:27:54 | INFO | fairseq_cli.train | criterion: label_smoothed_cross_entropy_with_align (LabelSmoothedCrossEntropyCriterionWithAlign)
2024-12-28 18:27:54 | INFO | fairseq_cli.train | num. model params: 199139328 (num. trained: 199139328)
…
